model_weights.npz (npz, 637050 bytes, 4 tensors)

Gm1 f8 [100, 784]
0.081801068974465 0.07719778663687842 0.05321752136100987 0.020597077269630604 -0.06516444950626117 -0.05471243039969587 0.017314638511044884 0.046445853956485074
-0.03279718223095195 -0.0013756059642986602 -0.003741601100821633 0.06890978427988324 0.028755355490682855 0.030049063347773252 0.05513618191123718 -0.049294171561273976
0.028832310215796086 0.0316857071231205 -0.0294634695451404 -0.058237221583687764 0.06603443647930331 0.005745492061415711 -0.06802321701102694 0.05915402992060496
-0.029377387591505207 0.0605055833290899 -0.003485951420963597 0.07259319539270646 0.012992838630358284 0.07408518186028172 0.07514382718614633 -0.07195785307988088
0.0741704941077753 0.04384010778317294 -0.042132878449117915 0.03477155665264748 -0.009871110805302572 -0.06095512219893936 -0.06662312173101588 -0.05038454890489139
-0.020617167656571952 -0.005182101300385726 -0.004086981153964643 0.05708167662045071 0.004346686093305669 0.04198833999864698 0.05858409931315623 -0.07487006275141904
-0.04562065657518411 0.06371447623759673 0.029622999538140866 -0.03234078532403232 0.021050155883734146 -0.07567018157086132 0.012445469058679057 0.022056569535962915
-0.056468301002942846 0.03598117644607488 0.0726396105496905 -0.062192346479998814 0.0245777975262489 0.0709933074232331 0.0003859057451103362 -0.029653734781754874
-0.038201112794998625 -0.03397425966992091 -0.0032155759351515547 -0.023402241955679758 0.04800870632097622 0.006062322384215691 -0.056503009659583124 -0.04180567799464397
0.036954350392965275 -0.011944673471209177 0.02681964341045195 0.036482449246273606 -0.06735484604533866 -0.0744505694576567 -0.07194852627838484 0.037019093834552465
0.02592220019311588 0.0012435296677230118 -0.011428284834868406 0.00884077251332332 0.06818608219092663 0.07947593364236401 0.06100785665271279 -0.06862521582140689
0.005056202879290223 0.012417848319312206 0.046466087748336 -0.023719823326363874 0.03483703417523252 0.029373693001437794 0.036850909610333445 -0.0025952047566624595
-0.023065418835273247 0.0008358505802199063 0.06827666198854641 0.0689756840997325 0.005308892573245021 0.07391457858554323 0.02523068580323597 0.017777459263071557
0.025625765281416708 0.0035897104103952064 0.02050521192501246 0.02511310998958057 -0.06429574561261774 0.007456073993638824 0.08028595310126534 -0.056791370797800576
-0.02347210514627916 0.036623836068976186 0.057921905100022854 -0.041955067396137004 -0.03206286938683667 0.021250220856956457 -0.003098768009595121 -0.019486496037946582
0.03775999740319708 -0.0018777835578747553 0.0482565952179724 0.027496884452465856 0.0499349655994277 0.006249467302013646 0.007161637519477742 0.015160686955915428
-0.01876506815140687 -0.09016434159791618 -0.05040898179932403 0.02991424686378794 6.393467147591436e-05 0.07745459110325977 -0.022091725037734194 -0.06917728530066687
0.03303595564941655 -0.02736726813522609 -0.03381194225246708 0.02480831250610149 0.06772187295853178 -0.02086443456106937 -0.0036028245339679897 -0.04700733112528175
0.08405408621708921 -0.03148397391090706 0.0831285118519127 0.06735262458857283 -0.07430465565759549 0.06088802775600671 -0.01682354059806352 0.03734589467411984
-0.0001918246971074438 0.06295561209565352 -0.024633871440881302 0.02516530621187215 0.06374200296431556 0.035824762712001954 -0.04965407698190777 -0.009064290038606676
0.038545033447064767 -0.027319161397386073 0.05389727234929824 -0.045535157773994576 0.008134997846080384 0.02508978560401976 -0.05892413119922941 -0.039467258162173606
-0.023957499231077508 0.02453161744907716 -0.02237348796435035 0.06910078487448384 -0.013079817823343772 -0.048134733543244844 -0.021212747451006864 0.014778953643251797
0.04637827809859872 0.011856397392747648 0.03862111772622052 0.020197002797813737 0.033049880877619835 -0.00021682811503511055 0.06372459120335242 -0.08313581171747872
-0.029897557442945043 0.03755539445722289 -0.0735685883622171 0.05355286178757196 -0.0356673749436627 -0.03639387554307377 -0.006141900259671941 0.03921571571691733
0.0859900704858189 -0.023925279511176702 -0.0012912045807451492 -0.0434952366034252 0.050438889417711276 -0.01683821453986877 -0.07893796909254382 -0.035776459822045824
0.057527394718251544 0.06331671688326927 0.06738688347116911 -0.057937435918482355 0.05337749990283109 0.019171059361287168 -0.04323616178246339 0.02513644289797355
0.07523981366642224 0.08313004278510405 -0.025934178449456523 0.06961162494064849 -0.022346481038432602 0.06701927042150689 0.02019253362954761 -0.028858200255073393
-0.03334248277672871 0.06768105902691146 -0.07313833021702264 -0.04412322773205708 0.03961185078213621 0.04605208283957812 -0.04126675791270156 0.06067382121860334
0.04973307958070682 0.0742529502719415 -0.04270566865684489 0.014816600794040334 -0.0009126755273772839 -0.0372546187640914 0.004426521753172155 -0.03776714526276486
-0.015565491351078266 0.002542337056574716 0.03216905553338931 0.011874652574767077 0.03229260344378212 0.04511830646889023 0.05737015728394253 -0.03817198570122154
0.016725723883685567 -0.061259930172250586 -0.04313126817839839 -0.09849052209134039 -0.01953587854476167 -0.008099578934208825 -0.05551332835732776 0.005657066455143247
-0.018192496044316112 0.013368702818198318 -0.055505423258830476 -0.05410068079032696 0.08562888619812363 0.06141891144768762 0.0334318684323268 -0.025920136536767925
00000000: 4dee 0534 eaf0 b43f 8bd1 edf0 3bc3 b33f
00000010: 2fb2 a3b3 533f ab3f 6da3 1075 6617 953f
00000020: 95c1 7d0b 9eae b0bf 91b3 8086 4403 acbf
00000030: 2587 96b8 edba 913f 5548 8e3f c0c7 a73f
00000040: af70 2ad2 caca a0bf 5000 3fa8 b589 56bf
00000050: b04a 9bcb b4a6 6ebf 7744 db55 12a4 b13f
00000060: 5d5a ab3d 0b72 9d3f 039e 6a81 2ec5 9e3f
00000070: f527 4544 cf3a ac3f 5969 7aed 153d a9bf
00000080: 73a6 c795 3786 9d3f 055a b0e7 1b39 a03f
00000090: 1106 7ef8 ab2b 9ebf a743 39e4 44d1 adbf
000000a0: 31a1 1601 a2e7 b03f f023 0dc8 9588 773f
000000b0: b55a 6e34 f869 b1bf 7507 dfdf 6f49 ae3f
000000c0: 5f2b ca1b 1b15 9ebf 7968 3f7b 96fa ae3f
000000d0: 9dc6 26eb 918e 6cbf 27b2 1fb8 7795 b23f
000000e0: 472b ff47 fd9b 8a3f 8347 3519 3ff7 b23f
000000f0: 19c2 4238 a03c b33f 4720 ab71 d46b b2bf
00000100: e763 8566 d6fc b23f 811a 5dea 3572 a63f
00000110: bbf4 0cce 7092 a5bf 69ea 4ed5 93cd a13f
00000120: c5f6 ab10 4e37 84bf 4b7b bc80 8235 afbf
00000130: e5fc fd80 360e b1bf 6d5a 8aeb 00cc a9bf
00000140: 1fd5 48b3 aa1c 95bf 5265 c1b9 d339 75bf
00000150: 6891 54a6 82bd 70bf 1f45 923c cf39 ad3f
00000160: ee1b dea9 d4cd 713f 870c 37e6 7e7f a53f
00000170: d132 3b2d bcfe ad3f 0781 f736 af2a b3bf
00000180: 9161 0638 975b a7bf 2fe5 b887 974f b03f
00000190: e527 e7d8 7d55 9e3f a55c 96ae f88e a0bf
000001a0: fda6 620c 2c8e 953f 4d15 21fb 1e5f b3bf
000001b0: 0527 b994 027d 893f 8190 4653 ff95 963f
000001c0: 4dfb 22c4 69e9 acbf dd09 37f0 1f6c a23f
000001d0: 4181 b46f 8298 b23f 6edd 62dc acd7 afbf
000001e0: 83f0 5412 ec2a 993f fb1e 9e0d 9e2c b23f
000001f0: b370 f98d 6c4a 393f b119 5e74 8c5d 9ebf
00000200: c32a 40a4 188f a3bf 8951 60fc 1265 a1bf
00000210: 2744 562f 8d57 6abf 6330 69df c1f6 97bf
00000220: 03cb 24df 9894 a83f 9a59 0c46 ced4 783f
00000230: 431a 3a65 f6ed acbf 3157 8cc7 8d67 a5bf
00000240: a5f2 c33c aeeb a23f f3a7 5cef 7276 88bf
00000250: 3f64 5acd 9b76 9b3f 1b0d c8dc d3ad a23f
00000260: 85e9 fdcc 2a3e b1bf ff3c fd48 310f b3bf
00000270: 656e 5cf7 376b b2bf 7da4 b1aa 2af4 a23f
00000280: 0579 4768 598b 9a3f 0d56 49d0 bd5f 543f
00000290: 9fca eb6c b667 87bf 1d5f 8766 1c1b 823f
000002a0: f369 0da1 a474 b13f 0d22 d0e7 8858 b43f
000002b0: bfb2 3efa 6b3c af3f 3f46 a211 6c91 b1bf
000002c0: 14c9 2220 d0b5 743f e556 5863 876e 893f
000002d0: 591c 812e 67ca a73f 9684 d065 024a 98bf
000002e0: cdcb f1e4 28d6 a13f a636 372b 2314 9e3f
000002f0: 315e 3557 1fde a23f 621e cdf1 8942 65bf
00000300: 41a0 430e 769e 97bf 437e 0474 9f63 4b3f
00000310: 6f23 524e 947a b13f c575 6df3 63a8 b13f
00000320: 4558 aeff c6be 753f bcf7 b8d9 10ec b23f
00000330: e5ae 85a9 12d6 993f cf3e 9018 4134 923f
00000340: 054e 46ff a33d 9a3f af7f 121a 2b68 6d3f
00000350: cb3f 767a 51ff 943f 55a5 6c48 40b7 993f
00000360: d799 ad9c af75 b0bf a706 599f 428a 7e3f
00000370: 7beb e5c6 9e8d b43f 4b0a 8b30 c213 adbf
00000380: fbdb e24f 1209 98bf e933 5704 5cc0 a23f
00000390: 85d3 40a0 f0a7 ad3f 555b bc74 227b a5bf
000003a0: 5061 dd5e 8b6a a0bf 7620 742e 9ec2 953f
000003b0: 6790 4a68 9662 69bf 3855 c99c 44f4 93bf
000003c0: a936 e343 4755 a33f c51c 15be fec3 5ebf
000003d0: ac14 8ea4 16b5 a83f b465 dcad 2428 9c3f
000003e0: a454 5a68 1391 a93f c184 df9a 0a99 793f
000003f0: 8652 e96e 8555 7d3f bbce 48f5 900c 8f3f
00000400: 7cec 1168 2637 93bf 17ad 6da2 0215 b7bf
00000410: 3a69 81c0 34cf a9bf 1996 db1f d7a1 9e3f
00000420: e9be d24a 95c2 103f 6dab b667 10d4 b33f
00000430: cb79 3292 369f 96bf 9d0f fe41 9ab5 b1bf
00000440: 9373 36ba 16ea a03f 2b94 7c46 2a06 9cbf
00000450: 6f8e 6084 cc4f a1bf 5fd6 87ab 5967 993f
00000460: bdac 947d 3856 b13f 0778 5b80 7c5d 95bf
00000470: 0ae7 7db1 ab83 6dbf 8ded b54b 5811 a8bf
00000480: a8c6 658f 9184 b53f ee46 97dc aa1e a0bf
00000490: 9ee4 c4ff e847 b53f 185e e887 053e b13f
000004a0: 016b fd41 a105 b3bf 8827 dc2f b72c af3f
000004b0: d2ba afb2 303a 91bf fdc8 8748 001f a33f
000004c0: 59b1 ed99 9124 29bf 2bed 0ce7 db1d b03f
000004d0: 6f8d d920 9f39 99bf f6fc b11c efc4 993f
000004e0: 4aff 1c5a 6551 b03f 0e53 7890 9f57 a23f
000004f0: 382f 8059 426c a9bf 90db 376a 4c90 82bf
00000500: 0620 28b4 2cbc a33f 970f 06e3 8df9 9bbf
00000510: 36ed 2a5c 6c98 ab3f 573e ea5a 6250 a7bf
00000520: b495 9ded 14a9 803f 421b 8802 23b1 993f
00000530: 794d e4c0 4d2b aebf 877e 236e 0d35 a4bf
00000540: 6704 c48e 5088 98bf dda6 a5fa d01e 993f
00000550: a1d6 6a5c 13e9 96bf 64f1 29cb 96b0 b13f
00000560: 7eaa 4f6e 97c9 8abf f364 bda4 1da5 a8bf
00000570: bdd4 3d62 cbb8 95bf 50f1 8894 6d44 8e3f
00000580: ce46 5bc7 e4be a73f 6adf 66b8 2a48 883f
00000590: d95e 23ab 25c6 a33f b4ae f9e9 85ae 943f
000005a0: ff1b 03fb e9eb a03f 4572 6b53 8b6b 2cbf
000005b0: b25b 2b3b 4150 b03f cef6 7378 6348 b5bf
000005c0: d379 ca1d 779d 9ebf a0dc f6ed 753a a33f
000005d0: e552 0719 64d5 b2bf 983b f8db 476b ab3f
000005e0: 639b d581 fe42 a2bf 68e2 76d2 37a2 a2bf
000005f0: 4e65 02cc 3f28 79bf 069e fc10 1514 a43f
00000600: 8b6f 84fc 7103 b63f 9751 3154 de7f 98bf
00000610: ba7b 975c b427 55bf 29ab 7cf5 0145 a6bf
00000620: 45c3 fd48 20d3 a93f 5d4a 1673 093e 91bf
00000630: 4146 aa5b 4735 b4bf 2300 cec9 4a51 a2bf
00000640: 23c1 e00d 3b74 ad3f 6bc1 4d3c 8635 b03f
00000650: 0423 b04c 4440 b13f e4cb f7c0 f9a9 adbf
00000660: d98c d9b0 4b54 ab3f a313 f203 94a1 933f
00000670: 1372 b8d9 0c23 a6bf 5cff bc20 5ebd 993f
00000680: 4cee 0d9b ea42 b33f 00bd 13af 0248 b53f
00000690: 16fb 2741 7d8e 9abf f49f 8a44 11d2 b13f
000006a0: bb87 f6f4 fee1 96bf cf82 a9c6 2c28 b13f
000006b0: 35c8 3ffe 59ad 943f ec90 4409 018d 9dbf
000006c0: 53de 2f12 4412 a1bf 7048 14bf 8b53 b13f
000006d0: b7bc 5d90 31b9 b2bf 7acf 34d8 5197 a6bf
000006e0: 8a5f 4927 0148 a43f e8d6 6a7b 2394 a73f
000006f0: e743 4b9f ea20 a5bf c3e9 b69b a310 af3f
00000700: 4f31 a83c 9d76 a93f 3bac 0cc9 3d02 b33f
00000710: d14c 7874 84dd a5bf b94c c97e 2a58 8e3f
00000720: 0e74 5ec5 13e8 4dbf fdf5 6e92 0913 a3bf
00000730: 8375 a362 8b21 723f 67a1 881b 3756 a3bf
00000740: 6175 64e2 cce0 8fbf 30c0 6dd0 aad3 643f
00000750: 1c11 eb62 7678 a03f 8e0d aee3 bc51 883f
00000760: 0b32 63f7 a788 a03f 3c36 7825 bf19 a73f
00000770: ca10 9a0a 9f5f ad3f a795 6b4c 478b a3bf
00000780: 0855 5454 8c20 913f 4b45 4a29 765d afbf
00000790: 7dbf 8534 4d15 a6bf 6328 59c3 ac36 b9bf
000007a0: fb23 cb9d 3601 94bf 6404 1215 8396 80bf
000007b0: a9db 9233 3e6c acbf 4381 a836 dd2b 773f
000007c0: 51fa 2bbe 0da1 92bf 6c20 27eb 0c61 8b3f
000007d0: d36c 4bf3 346b acbf d51f 5f9d 15b3 abbf
000007e0: 4358 d051 c6eb b53f 6f27 0cb0 4c72 af3f
000007f0: ce3d 1f5b fb1d a13f 1adf eeea ce8a 9abf

b1 f8 [100]
-0.0009313986734314991 -0.0008451358022281974 -0.0007135445502863009 -0.0018640448765012549 -0.0006959064532455363 -8.263340051375494e-05 -0.00010846788979791873 -0.0006759954002508626
5.979400917151446e-05 -0.00018769988984340184 0.0006184117464042707 0.0004017490202578021 5.664017711019098e-05 -0.0006119013010009705 -0.0009335996429437708 0.0004169866884283063
-5.883270235355144e-05 0.00014257109368394764 -0.0016168693207898703 -0.0011597149798318052 -0.0019841366866870896 -8.247551449135064e-05 0.00028138081692703483 -0.0006082304889483929
-0.0002628329745791601 0.0016869816025244185 -7.697834307767424e-05 -0.0005582367041396926 -0.0019596179953234117 -8.183206990609151e-05 -0.0008601724625747108 -8.597673197120236e-05
-0.0012431319769385264 -0.00015324216944605337 -0.0007448619204382728 -0.0005617081028393151 -0.0006359920587665494 -1.1613345988106145e-05 -0.0007550376659002263 -0.0023447110840614876
-0.000706714011714042 -0.0017730081874356258 -0.00027565856876099866 0.0022724002548911524 -3.6183326654327714e-05 -0.000682172185725678 -0.0008564004421447565 -0.00042948372523853045
-0.0005445286320043223 -0.00029005221519114676 9.757092658443924e-05 -0.0018114866066916671 -0.0010276701130864211 -0.001223784335737129 -0.001431354632673637 -0.0016462664618190493
-0.0012561404047975939 -0.0003927089282979138 -0.0006647690242946754 -0.001311564793708603 0.000998400534032215 -0.0008451685247885041 7.442996735209901e-06 -0.0020992540102819524
-0.0002133749612662703 -0.0015306226082967605 0.0015912290448250157 -0.0003729584169712078 -0.0005484154166184569 -0.0002291842693428847 -0.001436891946535223 -0.0006723499845793192
0.0004504737414443871 -0.00015746326967420353 -0.0002801368283603833 0.0006031763710278186 0.00016262700813495103 -0.0006854091027590663 -0.000953586156706345 -0.0005224436935115812
-0.00025123631310374004 -0.0004064057786136821 -0.0010157744253506413 -0.0004475310028343983 -0.0011958683498224632 0.000610880657578778 -0.000392820519660745 0.0003183762842197953
-4.103290734651863e-05 0.0005751480026053503 0.00039084501275819187 -0.000589695415702928 1.6352008490434442e-05 -0.0002446238549400858 -0.0005025800322672517 0.0004873358802905597
0.00042861434556101027 -4.3360126711763e-05 -0.0010854838273346463 -0.0006937378669703267
00000000: ca3b c46b 2385 4ebf 00c3 cc50 83b1 4bbf
00000010: 10ed fc40 a561 47bf bc33 1af2 5e8a 5ebf
00000020: 910a 98ba afcd 46bf a386 d402 6fa9 15bf
00000030: 88e4 4a28 286f 1cbf a20f 7311 a926 46bf
00000040: 08e9 d782 6a59 0f3f 4987 d4c6 299a 28bf
00000050: 7d5e f61c 9d43 443f fd97 38e7 3a54 3a3f
00000060: d7d3 a7aa 1db2 0d3f f13b c009 000d 44bf
00000070: 5b56 8df7 9997 4ebf d702 8e30 e053 3b3f
00000080: a853 a642 64d8 0ebf 959a 945e e4af 223f
00000090: 3060 b336 a47d 5abf 00ca 4e7a 3200 53bf
000000a0: 3780 c345 0941 60bf f39b c28c d69e 15bf
000000b0: cc5c 0b68 c970 323f dbba 7b07 35ee 43bf
000000c0: 2776 b607 9b39 31bf 6a77 f4b3 b6a3 5b3f
000000d0: 900d 34dd ed2d 14bf 6d60 a031 d44a 42bf
000000e0: 126e 7be6 9d0d 60bf ed01 8c41 a873 15bf
000000f0: a32e 3f4c a62f 4cbf 8f02 1502 cd89 16bf
00000100: c842 e0cb 125e 54bf 28d6 5736 f415 24bf
00000110: 3802 4ecb 5a68 48bf 0671 3ef7 f267 42bf
00000120: 03bd e48b 16d7 44bf 741e 711e de5a e8be
00000130: 9677 880a b7bd 48bf 936d 962d 3735 63bf
00000140: f126 b2c8 5828 47bf b18f 8e0b 890c 5dbf
00000150: 4918 a689 c810 32bf d4d8 e698 919d 623f
00000160: 45ba 1aa3 71f8 02bf 71e5 2c9d 795a 46bf
00000170: 6dd8 15f2 0110 4cbf 031f d78d 8a25 3cbf
00000180: dbd9 4555 d6d7 41bf 5ecd 43c7 4402 33bf
00000190: f9f7 3fc1 df93 193f f28c e7ee ecad 5dbf
000001a0: 35cf b661 5cd6 50bf 561e c26c ec0c 54bf
000001b0: 1920 8655 8973 57bf 4303 4c27 f1f8 5abf
000001c0: df6d 4c7d a294 54bf d3b8 fe00 90bc 39bf
000001d0: 96a7 ff9b 7cc8 45bf 4ee9 50f9 197d 55bf
000001e0: f327 1669 985b 503f 3bb6 3796 c9b1 4bbf
000001f0: 32d8 2c5d db37 df3e a4bb 3e6a 7432 61bf
00000200: 021f faf5 acf7 2bbf 97c8 e382 e513 59bf
00000210: 345c 4f2d 1912 5a3f 8b03 2334 3471 38bf
00000220: f138 b623 71f8 41bf 7079 17e2 250a 2ebf
00000230: caae c4fa c28a 57bf d86f fd98 1408 46bf
00000240: 29d2 b9fc b185 3d3f 0ea9 e82f 97a3 24bf
00000250: 3289 2684 ea5b 32bf 93bc c564 cfc3 433f
00000260: 369e de5c db50 253f 9e30 22d7 a075 46bf
00000270: df42 b1ad 423f 4fbf 95e6 ef49 931e 41bf
00000280: 0ebf 93bf 0b77 30bf b85c 2e87 5ba2 3abf
00000290: 83b6 f77b 77a4 50bf d91b 6805 5354 3dbf
000002a0: 76d2 fadc d597 53bf 067d 1839 7004 443f
000002b0: daf9 fe48 6fbe 39bf f9fd 81ba 77dd 343f
000002c0: cdda fdf5 5783 05bf ba42 47ee b0d8 423f
000002d0: 8e96 2f8c 4a9d 393f 5fae 3443 b952 43bf
000002e0: 9d47 9077 7525 f13e ad21 f074 1b08 30bf
000002f0: 2cd5 ae66 f277 40bf 660d 03ab 23f0 3f3f
00000300: 70a3 c698 f416 3c3f abea 029c b2bb 06bf
00000310: 0db4 7a62 d9c8 51bf ee62 aeb9 7ebb 46bf

Gm2 f8 [10, 100]
-0.22199905311749873 0.26232783172424945 0.11458879797864309 0.06654851386285306 0.11531351138095118 -0.07405668805680769 0.2123124680596407 0.13772782453920349
0.12008912613716322 0.167961246049071 -0.17685069574637338 -0.34116671199191534 0.17606825756388547 -0.10499679010461556 -0.2752237346377905 -0.21909720193729787
0.11941459631197515 0.030801603778515648 -0.1332652192468394 -0.0695155436670778 -0.20620937112021676 -0.09010639836570135 0.0851564622620215 0.2357475175072179
-0.13241245160847528 0.011294537946005425 -0.21142638894392735 -0.29696104965277764 0.13282926623353974 -0.12394712931304099 0.15800144094222326 -0.14699322157694147
0.21709416056461447 -0.2015316221629224 -0.09011437256405631 -0.11109644276612446 0.0794793746931358 0.14779426917802 0.22227135342036616 -0.21973899805744943
0.1307112306162524 0.11949759796518344 0.23218284474683887 -0.04723880663484718 0.08329154183797452 -0.19802847795544173 0.010998924101591584 0.006860207842979789
0.05499428224236722 0.02277703065246324 -0.1140701521453189 -0.19749653363689637 -0.18326928958575392 -0.07299693103829086 0.0684644691156541 -0.079245092782207
-0.1846553027042757 0.12247554726709432 -0.12453923937000205 0.09127564301725663 -0.2598702964790979 -0.12168913088042772 -0.22619511575404236 -0.024640050212876075
-0.058814780828485236 -0.1962119321751695 -0.07302394481830503 0.18083664238028951 -0.008230145610476792 -0.1388929617102111 -0.16323347229495924 0.15959113499144656
0.06653661180058758 -0.17441421367564036 0.20175815214056206 0.1125590089386368 0.18252590429161364 0.16633318875101108 -0.028934631954443134 -0.22162775564128834
-0.3657243862347667 0.13311148276680368 -0.036217725268902254 -0.07562959104729447 0.06391772892004391 -0.28786068496884903 0.0794688261086224 -0.1908403154680687
0.035786577242538815 -0.0061337729121552905 0.10611540303854414 -0.10861983255563284 -0.05650152595654503 -0.22371687197915197 0.13603051906882377 -0.3332520194191486
0.2227851603518195 -0.010131561305398372 0.2262959067725774 0.1716448595495447 0.052383278835037864 0.17861591544142086 -0.012312981902004173 0.21984681303866055
0.007027465065972459 -0.051467691099670636 0.12534545410405376 0.1832689431249444 0.11703757110456611 -0.05465026555291286 -0.09243221737508017 0.08981561879450266
0.11089305806860186 0.08063702367943823 -0.008829703078696668 -0.05746737232574691 -0.0185189933511638 -0.16521129792585065 -0.13368042607085343 0.01381748141367648
0.2952048163262205 -0.12107637811721002 0.19310546275337476 -0.14570107816460337 0.1629010899402208 0.00922512571387632 -0.046298675003160226 -0.01922634268414819
-0.21426577015269826 -0.013899712383267857 -0.17499370055823282 -0.20299722086243988 -0.1414911071527987 -0.08046949543493384 -0.2704205958777078 0.12891965424391907
0.16965923891803034 -0.1529125886214038 0.08877053144310162 0.04788712297096994 -0.08376721921769455 0.2201587472338653 0.19843408212902924 -0.27728718235815875
0.16627652465836532 -0.06559241937655223 -0.026776154690666694 0.06582521366400569 -0.13790257669983205 -0.1373291546700051 -0.1569891229532421 0.1976207788740361
-0.06657379066929066 -0.24755712169826175 -0.0009795545173091106 -0.08730399607602403 0.1407313763705722 -0.20326164200012145 -0.1967529057049326 0.10054387333871168
-0.10137063439339253 0.11712450639001455 -0.06327920662990388 -0.14136465796886633 -0.11573370498871535 -0.2049630692843319 -0.34964029365546245 0.16646823536463065
0.19647768627235554 0.21118567800218108 0.09419210930205706 -0.0014330465858858118 -0.2067118326022316 -0.06361214471939353 -0.05334845709020661 0.035737144137736626
-0.14142866670588056 -0.13848040796950387 0.04135586398755268 0.10405953404925203 -0.27020321892024507 -0.09540030069319697 0.09354722098071626 0.17711018753502597
0.22940220288182422 0.07947742374161917 0.20472265044242216 0.07743686244858373 -0.14626190406257975 -0.16075671182750054 -0.2457909271266981 -0.01912533762204648
-0.2640863935946048 0.178007650590672 -0.20911277876793627 -0.08347440847509319 0.22857757243852922 -0.2921220080539933 0.03691381428593309 0.4382759707342889
-0.20270749466484977 0.18944064683838865 0.0941181141991765 0.15238918493559955 -0.23629849026061342 -0.12235490506187922 -0.21666081213705954 0.26076431753639095
-0.18745612111116097 0.18563391749798114 -0.14873471012575873 0.045791532764976384 0.09361007034023405 -0.0644555283620487 0.19553880203365798 0.08653368118923932
-0.07172391575440633 -0.4169590718036002 0.02590363788980492 -0.237474951609836 -0.2741881997503985 0.17799969125671675 -0.08151402392043931 -0.12871504482183535
0.01575565191933394 0.1800483432291453 0.17528216235029212 -0.11051688233746422 0.14320886671754762 -0.05710916955131373 -0.2213936979001657 -0.09974117831932028
0.15520358680464313 0.1057352363276497 0.0005002097680725498 0.0035574845285287772 0.22822150450721213 0.21834931867509183 -0.12430326442383259 -0.26008221224019396
-0.0934137368725901 -0.2524801891795373 -0.11456784301369093 -0.05834388479939127 0.1902224619798845 0.17787033992921847 -0.00838245393720243 -0.09066272409982169
0.18256773748170238 -0.20910190997047662 0.13701567399986558 -0.13993833884560875 -0.33925391495436535 -0.16724495846832418 -0.2562762846734141 -0.14020191204258464
00000000: d2f9 7008 776a ccbf 0085 85ac fac9 d03f
00000010: a164 ce03 b155 bd3f 556b a3ca 5209 b13f
00000020: 3309 2bb0 2f85 bd3f 430a 410d 61f5 b2bf
00000030: a2b2 6c11 0e2d cb3f cf92 12bb 10a1 c13f
00000040: 0c45 5d35 29be be3f 8359 630d c17f c53f
00000050: e1b4 4029 0ba3 c6bf dd4d 9fe7 acd5 d5bf
00000060: 39e0 0c98 6789 c63f 4d2e afd3 11e1 babf
00000070: f68b d602 449d d1bf 689f 7b8a 600b ccbf
00000080: 9831 d379 f491 be3f 2f82 92a3 748a 9f3f
00000090: 4b02 2eaf d50e c1bf 501f 9d4a c5cb b1bf
000000a0: 0487 8b94 1165 cabf e11a 2482 3611 b7bf
000000b0: 5c5c 755c d0cc b53f 9041 e782 f92c ce3f
000000c0: 39ec 9e26 e4f2 c0bf fbeb cf38 9721 873f
000000d0: 0645 0319 0510 cbbf e372 1ceb 6801 d3bf
000000e0: 905d 36a5 8c00 c13f e124 d5c2 ffba bfbf
000000f0: 31ab c826 6439 c43f f30c b483 acd0 c2bf
00000100: 2388 e3cf bdc9 cb3f a758 26c7 c9cb c9bf
00000110: 21eb 0f4b bc11 b7bf 9ce7 6104 d170 bcbf
00000120: e777 03a3 c258 b43f cdf1 5330 ecea c23f
00000130: c799 e340 6373 cc3f bb01 2851 6820 ccbf
00000140: 6abd 5b46 25bb c03f 5805 3603 6597 be3f
00000150: 2aa1 70de 2ab8 cd3f 968d 3253 af2f a8bf
00000160: 823e 3a30 9852 b53f 4f65 3f46 ff58 c9bf
00000170: 1dce 759a 9a86 863f ef0f 4505 7319 7c3f
00000180: 1d5b 65e7 3528 ac3f f45f 02a7 dc52 973f
00000190: a0f4 e994 b333 bdbf 599c 8500 9147 c9bf
000001a0: 47e4 903a 5e75 c7bf 4890 8447 edaf b2bf
000001b0: 2a2c ca2f e386 b13f 7d39 de09 6849 b4bf
000001c0: 91ec 12f3 c8a2 c7bf 3966 12b6 8e5a bf3f
000001d0: 24b2 29b8 cde1 bfbf 7634 ae2d d75d b73f
000001e0: 5617 2506 b7a1 d0bf 5dfc 68d5 0427 bfbf
000001f0: 9bda 5628 f6f3 ccbf c02a 58c7 3d3b 99bf
00000200: 7008 5c90 f81c aebf 537f e3fb 781d c9bf
00000210: a3cc d17e b2b1 b2bf 9c8c 78b4 a725 c73f
00000220: 1a12 e871 f7da 80bf da4f 189c 3ec7 c1bf
00000230: 9547 8f9c d5e4 c4bf 4a88 c278 7b6d c43f
00000240: 5990 ab1b 8b08 b13f 20e3 d877 3453 c6bf
00000250: d992 920c 36d3 c93f 50f9 42ce aad0 bc3f
00000260: b07a cd42 025d c73f ff65 f6ea 674a c53f
00000270: 2351 dd47 0aa1 9dbf 4cbf 2e5d 4c5e ccbf
00000280: 7b97 8e41 0768 d7bf 7a4d 9a0c cc09 c13f
00000290: 6682 2133 218b a2bf a671 28fc 755c b3bf
000002a0: 629f 588b e95c b03f 11b4 ef38 4f6c d2bf
000002b0: a923 30a9 1158 b43f 71ca d898 746d c8bf
000002c0: 69f3 c845 9e52 a23f cfd5 f020 ba1f 79bf
000002d0: 1604 a709 612a bb3f 1c00 8664 82ce bbbf
000002e0: 139e 509c c4ed acbf 4e60 5b24 c1a2 ccbf
000002f0: cf49 54b3 7269 c13f fccb 2e47 0054 d5bf
00000300: 1462 df60 3984 cc3f b97c b623 dbbf 84bf
00000310: 0148 67a7 43f7 cc3f f559 2571 75f8 c53f
00000320: 2a50 e82a fbd1 aa3f 38d9 aee5 e2dc c63f
00000330: d4ca ae74 8c37 89bf 76c0 10bc f023 cc3f
00000340: bf38 1dca d4c8 7c3f 0fbe 2524 f959 aabf
00000350: 9122 0ae1 510b c03f 220c 8c52 5b75 c73f
00000360: 7e21 4c9c 2cf6 bd3f a0f2 889e 1efb abbf
00000370: fc04 b946 a3a9 b7bf cb73 6409 28fe b63f
00000380: 2211 c2c9 7c63 bc3f 7eca 8cc3 a0a4 b43f
00000390: 38b1 a6af 4e15 82bf 6bc8 7309 5d6c adbf
000003a0: 7f3e 319b a4f6 92bf 08b8 c2d0 a425 c5bf
000003b0: 057a 0bb1 701c c1bf 1354 47f6 564c 8c3f
000003c0: 198a efbd a2e4 d23f 45e0 548c dcfe bebf
000003d0: 4e33 9a07 aeb7 c83f 9abd da3a 55a6 c2bf
000003e0: 1054 e362 f1d9 c43f b0d1 f069 9fe4 823f
000003f0: 8331 f9bd 75b4 a7bf d04e 3304 12b0 93bf
00000400: c2a2 ba8d 0f6d cbbf 1829 e1d0 7377 8cbf
00000410: 0caa 738e 3166 c6bf 943b 641c d0fb c9bf
00000420: 79b3 f26e 611c c2bf 3efa 371b a699 b4bf
00000430: e169 dd2f 924e d1bf 7906 6571 7080 c03f
00000440: 1b00 4fd9 64b7 c53f e147 a3c3 a392 c3bf
00000450: 968b 6561 aab9 b63f 2ba4 1e36 a984 a83f
00000460: fd50 04bb c471 b5bf b81d a66d 292e cc3f
00000470: 74f6 93ba 4966 c93f 8a02 f5bc 12bf d1bf
00000480: 1907 c095 8c48 c53f 9f7a 1630 aaca b0bf
00000490: 5211 d652 356b 9bbf f569 f0d3 ebd9 b03f
000004a0: 57de 7aa8 caa6 c1bf e128 0c72 0094 c1bf
000004b0: 11b9 7436 3818 c4bf 8113 233f a34b c93f
000004c0: ad02 b2dd fa0a b1bf a1ff caa6 f3af cfbf
000004d0: 9699 74a7 8c0c 50bf 11e6 f4ff 8d59 b6bf
000004e0: b02e 8459 7c03 c23f f1fc 753c 7a04 cabf
000004f0: e6a4 b2ff 322f c9bf 048d cd47 3ebd b93f
00000500: 9690 7e07 6df3 b9bf 6d58 8124 dffb bd3f
00000510: fc04 feea 1033 b0bf 40ac 64b3 3c18 c2bf
00000520: 96b0 f85d b9a0 bdbf f263 bbd7 3a3c cabf
00000530: 8e4c a7ae 8160 d6bf b561 5bc5 d44e c53f
00000540: 6d7d 774a 2e26 c93f 0294 33de 2108 cb3f
00000550: 135c fe5c f91c b83f 9ddf 140e a27a 57bf
00000560: 1585 5c88 8875 cabf 2cbe 32b1 e248 b0bf
00000570: ac2e fd2c 7d50 abbf 8ce5 a592 234c a23f
00000580: 6efc 1ba5 551a c2bf 1fd1 aedb b9b9 c1bf
00000590: e512 a686 982c a53f ee1a 9447 a5a3 ba3f
000005a0: 1154 2271 024b d1bf 327f 8173 276c b8bf
000005b0: b36d beee b5f2 b73f ad2c a0ef 8bab c63f
000005c0: 54ff 8027 0d5d cd3f 3297 bde7 a158 b43f
000005d0: 4648 3310 5a34 ca3f 61b5 b8f7 e6d2 b33f
000005e0: 6bbb 4cc7 b5b8 c2bf adaf f409 ad93 c4bf
000005f0: f2d2 d4bc 1376 cfbf dd53 72ae 9795 93bf
00000600: a1ac f39d cae6 d0bf ffc3 dc66 f4c8 c63f
00000610: b6f2 fd20 35c4 cabf a416 742e 945e b5bf
00000620: a67c 1ca7 0742 cd3f f528 c281 20b2 d2bf
00000630: ffe4 4112 5ee6 a23f 884a 3ba8 b60c dc3f
00000640: 02ac 1eb6 51f2 c9bf 871b 5a53 973f c83f
00000650: 1158 72ee 1f18 b83f deff c722 7d81 c33f
00000660: abba e167 073f cebf fbf6 beab a652 bfbf
00000670: 530b 3a9f 8abb cbbf 7015 f2d1 5cb0 d03f
00000680: f9c0 cdea 8ffe c7bf 0a52 572a dac2 c73f
00000690: 0e95 e22d bd09 c3bf f08d 51df fc71 a73f
000006a0: 4004 b05e d4f6 b73f af84 5c52 2880 b0bf
000006b0: bab2 ea5b 6a07 c93f 78d4 b542 1227 b63f
000006c0: 9398 81a0 7f5c b2bf c7af 4a1a 75af dabf
000006d0: 6d28 56b6 7b86 9a3f 6047 6447 9465 cebf
000006e0: 0722 b8a9 4c8c d1bf 27a6 52a2 b1c8 c63f
000006f0: 8355 e762 1ade b4bf 93a8 010e bc79 c0bf
00000700: e5fe e1e6 3f22 903f f01f eff8 d20b c73f
00000710: f3ee 6e59 a56f c63f 0d98 4b9b d54a bcbf
00000720: 9448 860b ab54 c23f e099 0cbf 693d adbf
00000730: 93c7 02f2 a056 ccbf 102c f24a a388 b9bf
00000740: 9a1f c60c b6dd c33f e8e4 0fe6 7611 bb3f
00000750: f154 294c 1064 403f 0305 98f6 9524 6d3f
00000760: 341b 0dbd 5c36 cd3f 8a1d 68d7 def2 cb3f
00000770: cb84 7cb7 56d2 bfbf 1ff3 f5dc 2fa5 d0bf
00000780: a56b dd70 f6e9 b7bf 127f daaa a228 d0bf
00000790: bfc4 ea72 5154 bdbf b51b 45ea 3fdf adbf
000007a0: d187 95aa 3559 c83f 9e52 768e 74c4 c63f
000007b0: 9b01 2aec d12a 81bf f199 f91a ac35 b7bf
000007c0: abf1 e42e 615e c73f cc5a 6df4 d9c3 cabf
000007d0: 8035 6fc7 ba89 c13f ce33 66de 7fe9 c1bf
000007e0: b736 710d 56b6 d5bf 176b 8565 4868 c5bf
000007f0: ac69 5aa5 d466 d0bf fa9f 87e1 22f2 c1bf

b2 f8 [10]
-0.0034527611939919635 -0.013845084387113854 -0.01173066336218564 -0.01662541074784655 -0.005704853316350868 -0.00882206756307453 -0.004087321989486306 -0.016008724378732426
0.013525199301624368 0.004024295461087565
00000000: 084b 170d f748 6cbf 835f 39c5 cf5a 8cbf
00000010: fdfd 01fc 3e06 88bf ca3c c76d 4006 91bf
00000020: 1c59 c1e6 f85d 77bf e601 55dd 4d11 82bf
00000030: c379 5e24 debd 70bf 151c a14e 9764 90bf
00000040: 99fd 6085 19b3 8b3f bc26 5196 c77b 703f
